Model: "sequential"
_________________________________________________________________
Layer (type)                 Output Shape              Param #   
=================================================================
gaussian_noise (GaussianNois (None, 784)               0         
_________________________________________________________________
dense (Dense)                (None, 1024)              803840    
_________________________________________________________________
dropout (Dropout)            (None, 1024)              0         
_________________________________________________________________
dense_1 (Dense)              (None, 256)               262400    
_________________________________________________________________
dropout_1 (Dropout)          (None, 256)               0         
_________________________________________________________________
dense_2 (Dense)              (None, 32)                8224      
_________________________________________________________________
dropout_2 (Dropout)          (None, 32)                0         
_________________________________________________________________
dense_3 (Dense)              (None, 8)                 264       
_________________________________________________________________
dense_4 (Dense)              (None, 10)                90        
=================================================================
Total params: 1,074,818
Trainable params: 1,074,818
Non-trainable params: 0
_________________________________________________________________
2020-04-05 13:50:28.666420: W tensorflow/core/framework/cpu_allocator_impl.cc:81] Allocation of 376320000 exceeds 10% of system memory.
Train on 60000 samples
Epoch 1/20
2020-04-05 13:50:30.265015: I tensorflow/stream_executor/platform/default/dso_loader.cc:44] Successfully opened dynamic library libcublas.so.10.0
…
