Model: "sequential"
_________________________________________________________________
Layer (type)                 Output Shape              Param #   
=================================================================
dense (Dense)                (None, 1176)              923160    
_________________________________________________________________
dropout (Dropout)            (None, 1176)              0         
_________________________________________________________________
dense_1 (Dense)              (None, 392)               461384    
_________________________________________________________________
dropout_1 (Dropout)          (None, 392)               0         
_________________________________________________________________
dense_2 (Dense)              (None, 588)               231084    
_________________________________________________________________
dropout_2 (Dropout)          (None, 588)               0         
_________________________________________________________________
dense_3 (Dense)              (None, 196)               115444    
_________________________________________________________________
dropout_3 (Dropout)          (None, 196)               0         
_________________________________________________________________
dense_4 (Dense)              (None, 294)               57918     
_________________________________________________________________
dropout_4 (Dropout)          (None, 294)               0         
_________________________________________________________________
dense_5 (Dense)              (None, 98)                28910     
_________________________________________________________________
dropout_5 (Dropout)          (None, 98)                0         
_________________________________________________________________
dense_6 (Dense)              (None, 147)               14553     
_________________________________________________________________
dropout_6 (Dropout)          (None, 147)               0         
_________________________________________________________________
dense_7 (Dense)              (None, 49)                7252      
_________________________________________________________________
dropout_7 (Dropout)          (None, 49)                0         
_________________________________________________________________
dense_8 (Dense)              (None, 10)                500       
=================================================================
Total params: 1,840,205
Trainable params: 1,840,205
Non-trainable params: 0
_________________________________________________________________
2020-04-05 07:54:36.922201: W tensorflow/core/framework/cpu_allocator_impl.cc:81] Allocation of 376320000 exceeds 10% of system memory.
Train on 60000 samples
Epoch 1/100
2020-04-05 07:54:38.813705: I tensorflow/stream_executor/platform/default/dso_loader.cc:44] Successfully opened dynamic library libcublas.so.10.0
…
